faceland.pth (torch, 505116 bytes, 218 tensors)

conv1.weight f4 [16, 3, 3, 3]
000000 91 75 aa 3e 55 f7 12 3e fc 45 13 3d 43 4a 40 3e
       0.3329282 0.14352162 0.035955414 0.18778329
000010 5c 39 cc bd df e3 74 be 01 d5 ca 3d a2 1c d9 bd
       -0.09971878 -0.23915051 0.099039085 -0.106011644
000020 b6 da 06 be ed 5c eb bd 64 6f 07 3c 73 35 e0 bd
       -0.13169369 -0.114923336 0.008266304 -0.10947695
000030 f7 d6 1d be f2 5e 95 bd c0 e2 04 be a2 3b c9 bd
       -0.15414034 -0.072935 -0.12977123 -0.09825827
000040 7e 73 a4 bd 69 c4 fd bd 41 9f 34 be 42 29 c1 bd
       -0.08029841 -0.12390978 -0.17638876 -0.094316974
000050 54 1e 18 3d d4 ac 5c be e8 ce 22 bc c7 21 a3 3e
       0.0371383 -0.21550304 -0.009937026 0.31861708
000060 46 46 f9 3d 98 18 18 3e c9 d9 89 3e ae 2c d3 bd
       0.12171607 0.14853132 0.2692397 -0.10311256
000070 0f c9 8c 3e af c2 dc bc ad c9 b7 bc 2f 4a 29 be
       0.27497146 -0.026948301 -0.022435034 -0.16532205
000080 64 34 08 be 12 97 25 3b 43 92 9a bd 8c 75 8c 3d
       -0.13301235 0.0025267047 -0.075474285 0.06858358
000090 49 7a 3d 3c 01 f0 aa 3e 64 7e b8 3c 92 6b d2 bd
       0.0115648 0.33386233 0.022521205 -0.10274424
0000a0 cf f5 98 be 33 18 5c be b4 40 84 3c c7 8d fe bd
       -0.29875037 -0.21493606 0.016144134 -0.12429386
0000b0 dc 5c 39 3e d8 d6 c5 bd 90 ac 75 3e 9b aa e2 3c
       0.1810183 -0.09660119 0.23991609 0.027669242
0000c0 8c aa c5 bd 2e c8 7d be 64 dc 3c be ec b5 82 3d
       -0.0965167 -0.24783394 -0.18443447 0.06382355
0000d0 4c 6f 84 bd 57 6d b7 3d 83 ba 89 3d db d0 f3 bd
       -0.06466541 0.08956402 0.067250274 -0.119050704
0000e0 28 34 18 3e 59 53 a7 be 30 88 08 bf 32 8d 3e be
       0.14863646 -0.32680777 -0.53332806 -0.18608549
0000f0 bc 62 25 3d 0c 88 e2 bd 47 05 35 3e 14 0e 42 3e
       0.040377364 -0.11061105 0.17677794 0.18950683
000100 92 3c a6 3d ac 4d da 3d 3e 6d e6 3d ab 84 26 3d
       0.081170216 0.10659346 0.11251305 0.040653866
000110 da da 83 3d 29 e1 9d 3d bd c5 08 3d 93 df 65 3d
       0.06438227 0.077089615 0.033391703 0.05612142
000120 49 a9 ed bd 19 4a a1 bc 7c 7d 34 be c4 7c 35 3e
       -0.11604554 -0.019688653 -0.17625993 0.17723376
000130 a1 c0 89 3e ab 19 e3 3d cb c2 89 bd dd 1c af 3c
       0.26904777 0.1108888 -0.06726607 0.021376068
000140 33 67 c9 bd d6 be 85 3d e3 11 30 be 85 35 9a be
       -0.09834137 0.0653054 -0.17194323 -0.30118957
000150 81 9d 92 be 3d bf dc bd dd 3b 61 3d b0 0b a7 be
       -0.2863579 -0.10778663 0.05498873 -0.32626104
000160 56 59 88 be 03 7e 71 bd 6d 78 31 3e d9 ef f8 3d
       -0.26630658 -0.058958065 0.17331095 0.12155122
000170 48 96 16 be 6b 38 43 be f0 76 3f 3d 15 8b 4e 3d
       -0.14705765 -0.1906449 0.046744287 0.050425608
000180 ac 26 5d bd 36 35 1a 3c 6b 54 a2 3d 3c c9 41 3e
       -0.05399196 0.009412101 0.07926258 0.18924421
000190 6c 72 5b 3e 6b b6 a6 bc bb 71 19 bd 58 18 54 3e
       0.21430367 -0.020350656 -0.037461977 0.20712411
0001a0 2e 07 eb 3d b9 36 4b 3c 1f df 00 3e fe cb c0 3d
       0.11475979 0.012403184 0.12585114 0.094139084
0001b0 b7 58 59 3e 6f c6 42 be 83 72 d6 3c ea 69 d1 bd
       0.21225248 -0.19021009 0.02617765 -0.1022528
0001c0 76 53 09 be 40 bd 01 3d dd ca 95 bd 6c f7 88 3e
       -0.13410744 0.031674623 -0.07314084 0.26751268
0001d0 69 8b 49 be a0 2e 66 3e ec c3 2e be 0a 45 aa 3d
       -0.19682087 0.22478724 -0.17066926 0.083139494
0001e0 62 00 2f be 78 bf 32 be 19 06 a5 3d dc 92 10 bd
       -0.1708999 -0.17455852 0.08057804 -0.035296306
0001f0 67 84 84 3e 6e 1b e7 bd 1a 0f 14 3e 0c 37 55 be
       0.25882265 -0.11284529 0.14458886 -0.2082178
000200 d5 51 34 3d f2 25 02 be b8 da 01 be 07 c0 f0 3d
       0.044023354 -0.12709787 -0.12681091 0.11755376
000210 2c 80 73 bd f7 76 77 3e 68 f7 11 bd 89 65 87 3c
       -0.059448406 0.24166475 -0.035636336 0.016527908
000220 99 d9 2a bd 05 6f b7 bd 61 ca 62 3e e1 8d 86 3d
       -0.041711424 -0.08956722 0.22147514 0.0657003
000230 b8 f2 24 be c4 44 42 3d 97 d2 ec 3c 47 f7 05 be
       -0.16108215 0.04742886 0.02890901 -0.1308261
000240 72 a4 5e 3e 28 60 43 bb 1d 89 1c be 57 9e c2 3e
       0.21742418 -0.0029811952 -0.1528668 0.3801143
000250 61 b1 e6 3b dd 4f a8 be ff a7 0b 3e 1d 84 3e bd
       0.007040188 -0.3287343 0.13638304 -0.04651271
000260 f8 c3 63 be d9 60 2f 3e 89 d7 06 3c 5f 7d ba bd
       -0.22242725 0.17126788 0.0082300985 -0.09105944
000270 39 03 5f 3e 43 ca b3 bc 18 9d 48 be 82 23 e2 3d
       0.21778573 -0.021947032 -0.19591177 0.11041929
000280 90 46 3a bd 58 10 f4 bd 8d a8 b2 bd e9 48 60 be
       -0.04547745 -0.1191718 -0.08723555 -0.21902813
000290 84 7f 28 be 9f ef 28 3c 1c 3f 19 b9 41 9f 1e 3d
       -0.16454893 0.010311036 -0.00014614727 0.038726095
0002a0 16 8b 3f 3d 98 31 0b 3e a0 c7 64 3e 5f 45 8e bd
       0.046763502 0.13593137 0.22341776 -0.06946825
0002b0 20 47 5d be bf d2 70 be d5 5e cc 3d b2 b5 a4 3d
       -0.21609163 -0.23517893 0.09979025 0.08042468
0002c0 b5 c3 34 3d 01 ad 4a 3c 16 01 f5 3d fb 4f 16 3e
       0.044131953 0.012370349 0.11963098 0.14678948
0002d0 97 63 e4 bd 95 f6 44 be ad fa 8e be 91 ab 8a 3d
       -0.11151808 -0.19234689 -0.27925625 0.06771005
0002e0 8b 5e a8 3d 87 5b 96 3c 61 c1 57 3d 6b 44 27 3e
       0.08221158 0.01835419 0.052674655 0.16334693
0002f0 d8 68 0c 3e 94 b3 ae 3d 1e 57 7f 3e 6c 9f 6f 3e
       0.1371187 0.085303456 0.24935576 0.23400658
000300 dd 1c 49 be a4 73 a5 3b 68 af 44 3e 02 18 03 be
       -0.19639917 0.005049186 0.19207537 -0.12802127
000310 b6 e9 22 be 91 74 49 bc 8d 16 d7 bd 22 c4 24 bb
       -0.15909466 -0.012295858 -0.10502348 -0.0025141318
000320 19 a1 c0 bd 09 69 2f be c0 c5 38 bd 32 40 9f bb
       -0.09405727 -0.17129911 -0.045110464 -0.0048599476
000330 bb 85 c1 bc 5f 44 22 be 0c de 02 be 11 c2 07 3d
       -0.023623338 -0.15846394 -0.12780017 0.03314406
000340 33 c9 11 be e0 9b 4e be 4d 17 f1 3d 4f 55 80 bd
       -0.14236908 -0.20176649 0.117720224 -0.06266271
000350 09 99 29 be e6 d5 bf 3e ea cc 35 3e 8e f9 ce 3d
       -0.16562285 0.3746788 0.1775395 0.101061925
000360 31 b2 54 bd 8c df 13 bc 0a d9 47 bd f0 09 26 3e
       -0.05192775 -0.009025466 -0.04879097 0.16214728
000370 e8 37 49 3e 25 52 17 3e 33 07 21 be 95 e2 55 be
       0.19650233 0.1477743 -0.15725403 -0.20887215
000380 92 a4 09 be d8 b4 92 3c 19 52 a3 3d d4 aa 31 3d
       -0.13441685 0.017908499 0.07974643 0.043375805
000390 50 30 30 3e 77 4f 44 3e 7a 9d 14 3e fc a4 4a be
       0.1720593 0.19170938 0.14513198 -0.19789499
0003a0 a4 78 93 be 5f dc 34 be ff ba 12 bc 92 15 41 3d
       -0.2880298 -0.1766219 -0.008955716 0.04713971
0003b0 47 b6 2a 3d e5 14 c0 3d 60 5e 08 3e 16 cd a6 3d
       0.04167774 0.09378985 0.13317251 0.08144586
0003c0 02 2c 02 be cc 4f 32 be 18 ab c5 bd 6d 69 6a 3d
       -0.127121 -0.17413253 -0.09651774 0.057229448
0003d0 f9 59 52 be ac 70 0e 3e 84 dd 4d be 11 99 ee 3d
       -0.20542134 0.13910168 -0.20104033 0.11650289
0003e0 59 58 13 3e 8d 2a d1 bb 18 c7 e9 3d 22 7b 44 be
       0.1438917 -0.0063832463 0.11414927 -0.19187596
0003f0 91 c1 cb 3d 5c 19 8d be b8 fa cc 3d ae 37 20 be
       0.09949029 -0.2755841 0.10008758 -0.1564624

bn1.weight f4 [16]
000000 cf fe 13 3f fd e3 be 3e 0b 15 f7 3f 76 74 c7 3e
       0.5781068 0.37283316 1.9303297 0.3895604
000010 f4 14 a0 3e 9a cd cc 3f 97 78 92 3f 61 01 17 3f
       0.31265986 1.6000245 1.1443051 0.5898648
000020 76 29 7a 3f ac 1f 82 3e 06 5f b9 3e 46 2e 6b 3f
       0.97719514 0.2541479 0.3620531 0.9186748
000030 cb ff 17 3f 36 5f 4b 3f 93 e8 35 3f d6 ad 12 3f
       0.59374684 0.79442155 0.71058005 0.572965

bn1.bias f4 [16]
000000 d2 8d 80 bf 53 a6 0c 3f 77 2e 9a bf 12 9c 66 be
       -1.004328 0.5494129 -1.204543 -0.22520474
000010 0a c1 09 3f e3 5e 0e 40 67 70 69 be 1f b1 7a bf
       0.5381018 2.2245414 -0.22796784 -0.97926515
000020 46 b8 d8 3f 57 80 2c 3f 96 d3 f4 3d 92 3d 19 3f
       1.6931236 0.6738333 0.11954419 0.59859574
000030 f4 47 80 bf d8 c6 57 be 00 57 15 bf 10 18 9e 3c
       -1.0021958 -0.21071947 -0.58335876 0.019298583

bn1.running_mean f4 [16]
000000 0f bc dc bd cc 68 88 be 58 6a 5d bd f3 12 97 be
       -0.10778057 -0.26642454 -0.054056495 -0.29506645
000010 23 8a b6 bd 59 5d b7 bc 13 d9 e8 bc f6 5a b4 bd
       -0.08913066 -0.022383379 -0.028423822 -0.08806412
000020 80 5b 71 bd 28 f4 e4 bd ab 5a 84 3e 72 d1 9b 3b
       -0.05892515 -0.111793816 0.25850424 0.0047551924
000030 b7 26 7c bd 5f fe f2 bd b3 c8 80 be 70 ca e5 be
       -0.06156036 -0.11864924 -0.2515312 -0.4488101

bn1.running_var f4 [16]
000000 43 d5 59 3c 0e 6b df 3c f1 a1 3c 3c 9a 95 2c 3d
       0.013295474 0.027272727 0.011513219 0.04213486
000010 7f a1 6c 3b dc 66 a9 3c d6 4b 9c 3c 52 31 1a 3c
       0.0036107001 0.02067893 0.01907913 0.009411173
000020 22 7e b6 3b f0 5d ad 3b 3d 0e c2 3c ab 44 46 3c
       0.0055692354 0.0052907392 0.02368843 0.012101333
000030 5f 23 ab 3b 69 1f dd 3c 4d 3f a8 3c 54 3a 83 3d
       0.0052227224 0.026992517 0.020537997 0.064076096

bneck1.0.conv1.weight f4 [16, 16, 1, 1]
000000 58 b3 d9 3e 2a 90 09 3f 5b af f3 bc 23 f9 ab 3e
       0.4251964 0.537356 -0.029746702 0.33588514
000010 d3 51 d4 3d f4 26 c7 3d 8f 92 6a 3c 89 56 53 be
       0.10367169 0.097242266 0.014317169 -0.2063848
000020 f3 99 7d 3d 42 7f 2f 3b 66 95 29 be 08 c0 e9 3c
       0.061914396 0.0026778732 -0.16560897 0.02853395
000030 c8 e7 14 be 74 47 a3 3b 86 f5 36 3e f6 6c 70 3e
       -0.14541543 0.004982883 0.17867097 0.23479065
000040 89 6c bf be 14 4e 8c 3e 2a 68 54 bc af 02 3e 3e
       -0.37387493 0.2740332 -0.012964288 0.18555711
000050 39 39 0c bd 8a 56 de bd e1 20 1e bd 6b c1 f1 3e
       -0.03423426 -0.1085635 -0.038605575 0.4721788
000060 2a 82 8b 3d f2 09 23 be 0e 71 f7 3e fa 90 f2 3c
       0.06811936 -0.15921763 0.4832844 0.029610146
000070 81 ec e2 bd 52 98 1f 3e fd 00 d1 bc 63 a3 a2 3a
       -0.11080266 0.1558545 -0.025513167 0.0012408312
000080 05 02 b2 3e 27 16 66 be e4 ee 6d bb 70 f1 a6 be
       0.34767166 -0.22469388 -0.003630572 -0.32606077
000090 95 0c 0f bb 98 23 a7 3d d4 62 c1 3c 91 59 fc be
       -0.0021827568 0.08161086 0.023606695 -0.49287084
0000a0 ec 51 f3 bd 1a 13 06 bd 72 1f 97 be a4 6d ea 3c
       -0.1188086 -0.03273306 -0.29516178 0.028616734
0000b0 fe 56 45 3e 63 2d c1 bd d3 74 44 3e 47 3f 60 3e
       0.19271466 -0.09432485 0.1918519 0.21899138
0000c0 1b 08 df be 99 85 bf 3e f1 35 14 bd b1 f1 38 3e
       -0.4356087 0.37406614 -0.036184255 0.18060948
0000d0 98 93 c0 bc 36 56 c6 bd f7 ce bc bc c5 92 fb 3e
       -0.023507878 -0.09684412 -0.023047907 0.49135414
0000e0 e9 33 82 3d 0c e0 2a bd 91 4f c1 3e df 8a 10 bc
       0.06357557 -0.041717574 0.37756017 -0.008822172
0000f0 bf 6f 1b be 7f 9f e7 3d f4 a7 a9 bc 01 2e ee 3c
       -0.15179347 0.11309718 -0.02070997 0.02907467
000100 d0 66 a1 bc e9 28 1c be 80 1e bd 3b d8 df 4d bd
       -0.019702345 -0.15249981 0.005771458 -0.050262302
000110 b6 c0 91 be 72 6d 34 3c a5 82 5b be 77 60 57 3e
       -0.2846734 0.011012422 -0.21436556 0.21032892
000120 96 d7 4e 3e c6 13 9a 3e 86 40 1b 3e 88 e9 47 3e
       0.20199427 0.3009321 0.15161332 0.19522679
000130 f1 b0 68 be 23 2e ef bb a0 69 9e 3d 46 22 75 bd
       -0.22723748 -0.007299201 0.0773499 -0.05984714
000140 7f 89 8a 3e 60 08 a4 bd 67 95 96 3d 75 4c 32 bf
       0.27058026 -0.0800941 0.07352715 -0.69647914
000150 fb 8f 23 be 34 70 78 3c d5 97 64 3c 3b 98 50 be
       -0.15972893 0.01516347 0.013952215 -0.20370571
000160 58 09 ca bc f7 a6 c1 3d de 75 d0 3d 31 76 82 bd
       -0.024662659 0.09455674 0.101787314 -0.063701995
000170 ae d7 4e 3b 8d b9 36 be b4 34 8e be 44 ed 24 bf
       0.003156166 -0.1784422 -0.27774584 -0.6442454
000180 13 c8 7f 3e a0 21 a0 3d 15 84 6d bd 29 68 37 be
       0.24978666 0.078189135 -0.05798729 -0.17910828
000190 66 5c 16 3e 03 4e af 3c 61 c1 b9 bd 17 a2 11 3e
       0.14683685 0.021399504 -0.09070087 0.14221989
0001a0 fd 4e ae 3d d2 09 ad be a5 44 6b 3d bb e1 3b bf
       0.085111596 -0.33796555 0.05743851 -0.7339131
0001b0 25 30 a5 be e0 ed 09 bc d7 47 45 be 4d 53 a2 3e
       -0.32263294 -0.00841853 -0.19265686 0.31704178
0001c0 c4 cd bf 3e b1 e7 ad 3e 8d b7 90 3b 50 02 17 3e
       0.37461674 0.3396583 0.004416412 0.14746976
0001d0 04 fd 41 be 80 b3 97 3d ba 92 37 3d 42 72 37 be
       -0.18944174 0.07407284 0.044817664 -0.1791468
0001e0 fe ea 90 3c 54 67 d1 3d 95 14 93 3e fd 29 9e bd
       0.017690178 0.102247864 0.2872664 -0.077228524
0001f0 df 47 59 be 6a 6d ba be 90 da f7 3a 44 60 f5 3d
       -0.21218823 -0.364116 0.0018909741 0.11981252
000200 d2 f4 4e be cc 0e a3 be 7e 2c ed 39 69 a9 2f be
       -0.20210579 -0.31847227 0.00045237312 -0.17154469
000210 5f a9 a7 3d b2 7e 85 bc dd b8 cb bc 5f 7d 91 be
       0.08186602 -0.016295765 -0.024868423 -0.28415963
000220 bf ac 1e be 61 8c c4 bd 86 fa 9c be 99 bb 22 3e
       -0.15495585 -0.09597088 -0.30659884 0.15891875
000230 07 7f f6 3e da a9 e6 3b 83 fc 51 3e a6 1e 72 3e
       0.4814379 0.007039291 0.20506482 0.23644504
000240 9e 48 d9 3d 2e d3 89 be a5 d0 29 bd 4a 6e 0e be
       0.10609554 -0.2691893 -0.041458745 -0.1390926
000250 12 45 7e 3c b2 91 81 3b 32 43 75 3c 2d b8 b1 bd
       0.015519397 0.003954136 0.014969634 -0.08677707
000260 c8 73 9a bc cb 70 d4 bd 32 1f bf 3e 15 4d ff bc
       -0.018854037 -0.10373076 0.37328488 -0.031164685
000270 d5 dd 7e bd 1d 94 08 3d e5 94 d4 3e fd f4 1b 3f
       -0.062223274 0.033344377 0.41519848 0.609207
000280 f8 fd 3e 3e f1 b2 7e 3d 60 ff 35 bc 9d 24 b1 bd
       0.18651569 0.06218237 -0.011108249 -0.086495616
000290 d2 99 b3 3d 08 d2 a3 bc 73 40 ca be 1c 43 ab 3e
       0.08769573 -0.019997612 -0.39502296 0.33449638
0002a0 2d 6f bf 3d 23 3a a7 bc 6f 6e f9 3d 3a e0 20 bf
       0.09347377 -0.020413464 0.12179267 -0.6284214
0002b0 89 56 04 bf 5e 7a 26 bc cd 86 16 3d be a1 87 3b
       -0.5169454 -0.010161011 0.03674965 0.004139154
0002c0 17 29 a4 3a b2 07 8b be 59 29 20 ba c5 9e 35 3c
       0.0012524453 -0.2715431 -0.0006109677 0.011085217
0002d0 6d f9 b8 3e 67 62 c8 bb fd b6 50 bc cf f6 88 3c
       0.36127797 -0.006115246 -0.01273894 0.01671925
0002e0 71 0f 29 bc 77 0e d4 3e db a7 f9 3d 08 3d a5 3b
       -0.010318623 0.41417286 0.12190219 0.005042676
0002f0 52 85 c0 bc e4 24 da bc dc e8 59 3d c5 fe 28 be
       -0.023501072 -0.026628919 0.053200588 -0.16503437
000300 4c fd 08 bf 10 3e 60 be 0e 4a e3 bc a2 9c c9 3b
       -0.535115 -0.21898675 -0.027745273 0.0061527053
000310 60 5f 2f 3e 0d c6 28 be cc 8d 23 bd 45 ac fa 3e
       0.17126226 -0.164818 -0.03993015 0.48959556
000320 c5 48 d2 3c f3 14 a3 be 6d c3 e2 3d ee 1f 88 3d
       0.025669465 -0.3185192 0.11072431 0.06646715
000330 15 f8 2e 3d 30 c8 29 3e dc 08 b1 3d 9f 54 35 3e
       0.04271706 0.16580272 0.08644268 0.17708062
000340 3e 56 17 bd f1 78 c6 3e 77 26 a9 bd 83 b4 85 3e
       -0.03694748 0.38764146 -0.0825929 0.26114282
000350 93 71 b5 3d 85 07 4f bb 31 4d 64 3d 2e ad 41 3d
       0.08859553 -0.0031590175 0.055737678 0.047284298
000360 94 e6 a9 bb 9d a6 43 3e c8 44 bd be a3 a8 47 3c
       -0.0051849578 0.19106527 -0.36966538 0.012186202
000370 21 03 56 3d 2d f5 43 3e c5 3e a9 3e 7a 98 25 3f
       0.052249078 0.19136496 0.33055702 0.64685786
000380 bc 40 61 3e 18 71 a7 3e 3b 55 35 bd a6 0a b9 bd
       0.2199735 0.3270347 -0.044270735 -0.09035234
000390 8a 15 f9 3d 6a 87 09 3c 69 04 97 bd 9c 0c ee 3d
       0.121623114 0.008394102 -0.07373888 0.11623499
0003a0 08 09 6b 3d 39 51 3f be 50 9c 93 3e 3e b7 28 bf
       0.05738166 -0.18683328 0.28830194 -0.65904605
0003b0 aa 38 9b be 83 07 53 3d 74 36 8a be 2f 10 58 3e
       -0.3031667 0.051520836 -0.2699467 0.21099924
0003c0 5b 4f 33 bd 87 1b 68 3e cc 52 c1 bb be b5 cc 3d
       -0.04377685 0.22666751 -0.0058997627 0.09995602
0003d0 e2 08 2b 3e df 95 14 bc 31 7c a3 3d 27 cc 47 be
       0.16702607 -0.009068935 0.07982672 -0.19511472
0003e0 e4 89 7e be aa d8 87 be 1e 89 82 bd 05 1b 4f 3c
       -0.24857289 -0.2653249 -0.06373809 0.012640719
0003f0 dc 98 84 3e 18 7f ca bd 76 92 44 3e cb 4d b2 3d
       0.25897872 -0.098875225 0.19196495 0.08706244

bneck1.0.bn1.weight f4 [16]
000000 b6 60 dd 3d 8d 60 df 3d e6 b6 06 3e b2 d4 db 3d
       0.10809462 0.109070875 0.13155708 0.10733928
000010 8b b8 1c 3f 98 12 d4 3d 2a e3 81 3e 1f cc 0c 3e
       0.6121909 0.10355109 0.25368625 0.13749741
000020 9d f8 4b 3e f6 b4 03 3e c8 28 4d 3f 93 06 ea 3e
       0.19919057 0.12862 0.8014035 0.4570814
000030 8f 01 e6 3d 21 81 dd 3d 98 fa 98 3e 08 66 8e 3f
       0.11230766 0.10815645 0.29878688 1.1124887

bneck1.0.bn1.bias f4 [16]
000000 dc de 65 3e 9a c1 69 3e dd 02 4a 3e 30 e4 64 3e
       0.22448295 0.2282776 0.19727655 0.22352672
000010 0c 33 0c 3d 5d ba 72 3e 39 93 bb 3d 0b 99 38 3e
       0.03422837 0.23703904 0.0915894 0.18027131
000020 c0 5b 00 3e cc cb 38 3e cd ad e1 3c c9 a3 46 bd
       0.12535 0.18046492 0.027548695 -0.04849604
000030 79 06 64 3e 4e 4b 43 3e b1 66 b8 3d 18 02 7a 3b
       0.22268094 0.19071695 0.09003962 0.003814822

bneck1.0.bn1.running_mean f4 [16]
000000 ee f5 e9 3e 20 1d 90 bd e7 5d d8 bd 92 9f 17 3d
       0.45695442 -0.07036805 -0.105647855 0.037017412
000010 c6 0e c2 3e 2d 9c e1 bc 41 95 28 be c1 f9 8c 3e
       0.37901896 -0.02754029 -0.16463186 0.27534297
000020 f8 ce ae be 7a 7b 08 be 0b 5a 0c be 4c a8 2b 3e
       -0.3414228 -0.13328353 -0.13706224 0.16763419
000030 b7 55 dc be 7d 76 25 3e 43 fc fb bc c9 15 c6 be
       -0.43034145 0.16158481 -0.030759936 -0.38688496

bneck1.0.bn1.running_var f4 [16]
000000 7d 26 0d 3e 5d d1 0e 3d 6d ea 20 3d 46 2e 0d 3d
       0.13784213 0.034867633 0.039286066 0.034467958
000010 35 58 51 3d 66 7a 40 3e 4e 36 13 3f d8 ab 8e 3d
       0.05110951 0.18796691 0.5750474 0.0696637
000020 e6 5a 6c 3d 47 ee 8b 3c 49 e7 5d 3f 48 c8 bc 3b
       0.057703875 0.017081393 0.8668104 0.00576118
000030 61 19 6b 3d 42 91 93 3e 0b e8 f3 3e 53 1e 86 3d
       0.05739725 0.2882176 0.47637972 0.06548753

bneck1.0.conv2.weight f4 [16, 1, 3, 3]
000000 33 a7 f4 3d d3 5e c9 3d e9 68 12 be 5e 58 6c 3e
       0.11945953 0.098325394 -0.14297833 0.23080584
000010 a7 c5 af 3c fc 70 93 be 02 d4 4a 3d ba 91 46 bd
       0.021456553 -0.28797138 0.049518593 -0.04847882
000020 b2 e9 78 bd e9 76 d6 3d 8b 02 a0 3d cf 2a 4d be
       -0.060769744 0.10471899 0.07812985 -0.20035861
000030 36 09 1a be 7b ff a4 3e 20 06 1e be 83 84 cc bd
       -0.15042576 0.32226166 -0.15432024 -0.09986212
000040 0b cb 72 bb 7f ee 27 3e 19 c0 f5 3d 9e 6a 1b 3d
       -0.0037047293 0.16399573 0.1199953 0.037943475
000050 66 a5 b1 3b c7 63 8a be 9c 08 94 bd 21 36 86 3e
       0.0054213284 -0.2702925 -0.072282046 0.26213172
000060 18 d8 c6 ba 80 1a 32 be 81 f4 3a be bf d5 85 3d
       -0.0015170602 -0.17392921 -0.18257333 0.065349095
000070 3c 85 2d be 29 c9 35 3d 6d 09 85 3e 92 45 cd bd
       -0.16945356 0.044381294 0.25983754 -0.10023035
000080 a9 69 cb bd 0a 2d 0f bd 48 63 83 3e f6 4f 3d be
       -0.099322625 -0.034955062 0.25661683 -0.18487534
000090 f0 55 15 be 24 c5 95 be 06 14 3d be 85 15 3c be
       -0.14583564 -0.2925197 -0.1846467 -0.18367584
0000a0 b2 23 c0 be 03 e1 07 be 99 81 dd bc 09 3f 7c bd
       -0.37527233 -0.13269429 -0.027039336 -0.061583553
0000b0 17 13 ad 3c a7 84 df 3d ae 37 62 3e 43 05 0a 3e
       0.021127267 0.10913973 0.22091553 0.1347857
0000c0 7b 35 ed 3d 64 35 34 bd da eb 3e bd f5 40 09 be
       0.11582466 -0.04399623 -0.046611644 -0.13403685
0000d0 63 a3 74 be f0 42 d9 bd 7e cd fa bd ea 50 5a be
       -0.23890452 -0.106084704 -0.12246226 -0.21319929
0000e0 19 b1 05 bd 7a 63 ed 3d c8 17 a0 3e cb bc 24 3e
       -0.032639597 0.11591239 0.31268144 0.16087644
0000f0 68 06 23 bc 8b dd 89 bd fe ee c5 bd ca 16 c3 3d
       -0.009950258 -0.06731709 -0.09664725 0.09525831
000100 49 4f 0a be 1f 0f ea ba 6c 76 74 3c 5f 4e 8e be
       -0.13506807 -0.001785729 0.014920812 -0.27794167
000110 84 0e 8a 3e fe 1f ae bd 1a 46 59 bc 53 2a 6d 3e
       0.269642 -0.08502196 -0.013261342 0.23160677
000120 53 f8 83 be 0e 59 a1 be ef 60 1a 3c 95 01 30 be
       -0.25775394 -0.31513256 0.009422525 -0.17188103
000130 59 9b f4 3b 25 7e 26 3e 1b f9 ec 3c e8 1f 52 3e
       0.007464808 0.16259058 0.028927376 0.20519984
000140 af 57 ec 3d 17 49 83 bd ed ee 9d bd 75 7e cb bc
       0.11540162 -0.06410425 -0.07711587 -0.024840573
000150 ed d9 5f bd a7 85 bf 3e 43 bf 69 bd 23 c5 69 3e
       -0.05465119 0.37406656 -0.057067167 0.22829108
000160 0f c0 74 3e 63 e3 eb bd ca 77 20 bd 11 65 a1 3c
       0.2390139 -0.1151798 -0.03917674 0.019701513
000170 84 fb 09 3e 35 e1 9c bd da 8a 68 be 01 22 b3 bd
       0.13474852 -0.07660142 -0.22709218 -0.0874672
000180 8c 78 e8 3c d3 72 5b be f7 dc 56 be d9 1f 9a bd
       0.028377794 -0.2143052 -0.20982729 -0.07525606
000190 9e ad 0f be 76 a2 da bd 4d 7c 4e be f1 fa 9c be
       -0.14031073 -0.10675518 -0.20164604 -0.30660203
0001a0 5d 8f 29 be 7f 27 06 be 32 dc 55 be 67 44 ae bd
       -0.16558595 -0.13101004 -0.20884779 -0.085091405
0001b0 90 ae 9e 3d 30 9c b9 ba 63 b5 4f bd 86 32 7d 3e
       0.07748139 -0.0014160927 -0.050710093 0.24726304
0001c0 da f6 86 be c8 28 c0 3d 11 4a e1 3d a5 c8 89 be
       -0.26360208 0.093827784 0.11000455 -0.26910892
0001d0 48 a9 ce 3d fa 69 dd bd 06 7c 8c 3c d1 4c d5 3d
       0.100908816 -0.10811229 0.017148983 0.10415042
0001e0 43 11 9c be cc 42 93 3d 91 9f 80 3e f6 af b8 bd
       -0.3048192 0.07190475 0.2512174 -0.09017937
0001f0 c4 76 91 3c f7 ef 14 3d 10 c0 57 3c a2 97 a9 3d
       0.017756827 0.03636166 0.01316835 0.08280875
000200 41 92 6e 3d fd 25 22 be c9 7d 9e be 60 f9 91 bd
       0.058244947 -0.15834804 -0.3095534 -0.07127643
000210 73 3f f7 3d 74 25 9e 3e 1c c4 ba 3d b8 ca 4f 3d
       0.12072649 0.3088795 0.09119436 0.050730437
000220 73 8b 75 3e 2e d1 5d 3e 3a ea 21 3e d0 c6 9d 3e
       0.23978977 0.21661827 0.15812007 0.30815744
000230 87 0e a2 3d 5a 00 cd 3d 0d 53 bc 3c bd d3 46 bd
       0.07912927 0.10009833 0.02298882 -0.048541773

bneck1.0.bn2.weight f4 [16]
000000 45 00 5c 3e 1e 21 57 3e a4 f9 08 3e 15 74 44 3e
       0.21484478 0.21008727 0.1337648 0.19184907
000010 bc 6f 33 3e da 5d 83 3e ee 9e 20 3e 33 fb 4f 3e
       0.17523092 0.2565754 0.15685627 0.20310669
000020 27 1a 11 3e af 49 13 3e 97 e9 12 3e 19 40 22 3e
       0.14170133 0.14383577 0.1434692 0.15844764
000030 17 09 66 3e b8 59 89 3e c8 ef 21 3e fc 2c 13 3e
       0.22464405 0.26826262 0.15814126 0.14372629

bneck1.0.bn2.bias f4 [16]
000000 dc 1e 38 3e 18 fa ce 3c 2b 6b db 3e 52 47 1f bc
       0.17980522 0.025265738 0.428552 -0.009721594
000010 a6 04 1e 3e 29 fe 55 3e 1d b7 c4 ba d6 29 9b 3c
       0.1543146 0.20897736 -0.0015008185 0.018940847
000020 f5 40 03 3e 32 f7 bb 3c 55 7b 33 3f f9 ef e7 3e
       0.12817748 0.02294502 0.70110065 0.45300272
000030 0a c4 fb bc 12 7c 27 3e f7 dd 5f 3c 5a df f8 3d
       -0.030733127 0.16355923 0.01366376 0.12151976

bneck1.0.bn2.running_mean f4 [16]
000000 bc 9c 14 bc 27 9b 9f 3c 2a b1 61 bd d5 76 c6 3b
       -0.0090705715 0.019483162 -0.055100597 0.0060566464
000010 cf 9c 81 be 81 39 8a ba 38 74 af 3b f1 fd b4 3c
       -0.25314948 -0.0010545702 0.0053544305 0.022093745
000020 95 78 bf bc 5f ae a7 3d 54 1b eb bd 6a 12 e4 bd
       -0.023372928 0.081875555 -0.11479822 -0.11136325
000030 f4 ff 29 3a 39 e7 7c 3b 19 78 a2 3c e3 db b4 3e
       0.00064849784 0.0038589968 0.019832658 0.3532401

bneck1.0.bn2.running_var f4 [16]
000000 31 c4 9d 3a 5b c9 25 3b 34 39 1c 3b 02 1a bd 3a
       0.0012036619 0.002529702 0.0023837807 0.0014427307
000010 77 07 13 3e ed a3 57 3a 80 4a 77 3a 30 86 df 3a
       0.14358316 0.0008226026 0.00094334036 0.0017053541
000020 9d 52 99 3b 41 45 73 3b e4 6e 07 3c 03 99 3f 3d
       0.0046790377 0.0037120136 0.0082661845 0.046776783
000030 43 62 8d 3b 41 c1 92 3a e4 3e c9 3a ca 15 6c 3e
       0.004314692 0.001119651 0.0015353826 0.23055187

bneck1.0.conv3.weight f4 [16, 16, 1, 1]
000000 2c 32 c5 3e 66 21 69 3e d5 ea b6 bd 73 45 0d 3e
       0.3851484 0.22766647 -0.089315094 0.13796024
000010 e2 6a a6 bc 8b b0 56 be 64 41 0b bd 44 f5 5e 3d
       -0.020314638 -0.20965783 -0.03399791 0.054433122
000020 93 cf 07 3e de 07 d7 3d a0 66 de bc ab 13 5c be
       0.13262777 0.104995474 -0.027148545 -0.21491878
000030 ae 6d 08 be ae c0 4f be b4 86 91 bd 54 0b 3e bd
       -0.1332309 -0.20288345 -0.07105771 -0.046397522
000040 2e eb 69 3d 1c 49 30 be 7d e3 a6 bd 36 7d af bd
       0.05710905 -0.17215389 -0.08148859 -0.08568804
000050 3a bc c7 bc f4 9c 12 be 3c 0a 33 3d e3 61 de 3e
       -0.024381746 -0.14317685 0.043710932 0.43434057
000060 96 03 60 bd bc c9 10 bd 36 50 af be 0c 8b 45 3e
       -0.05469092 -0.03534864 -0.34240884 0.19291323
000070 0e 80 2e bc 51 ef 69 bd f2 81 45 3e ca 35 61 bd
       -0.010650648 -0.057112996 0.19287851 -0.054982938
000080 27 39 64 3d 95 3a dc 3d ea ac 01 bc c9 41 a1 3d
       0.055718567 0.10753361 -0.007914761 0.07873876
000090 2c 70 4a 3e b3 a8 a1 3e 90 b8 85 be 64 10 ba bd
       0.19769353 0.3157402 -0.26117373 -0.090851575
0000a0 2e 13 42 bd ed ae 36 3e 05 c0 d6 be 19 49 90 bd
       -0.047381572 0.17840166 -0.41943374 -0.07045192
0000b0 b4 bd 8c bd fd c2 6a 3d a0 8f 21 be 1f 9a 5f ba
       -0.068721205 0.05731486 -0.15777445 -0.0008529741
0000c0 11 8b cc 3d 1c 65 c9 bd 17 80 0b 3e bd e5 19 be
       0.09987462 -0.09833738 0.13623081 -0.15029044
0000d0 59 4f 86 bd 9a 3f 3b be ef 53 26 3d ea 26 30 3d
       -0.06558103 -0.18285981 0.04060739 0.04300586
0000e0 b6 24 0f 3d c4 b6 c6 bd ab 9c a4 bd 66 bf 57 3d
       0.03494712 -0.097028285 -0.080376945 0.052672766
0000f0 6c b4 78 3c 33 86 79 bf fa a9 13 3d 65 2e 81 3d
       0.015179735 -0.97470397 0.036050774 0.06307677
000100 76 ba ab bc 1d 79 0e be 54 9f fe 3c 14 1b a0 bd
       -0.020962935 -0.13913389 0.031081833 -0.07817665
000110 71 5c ea 3e d7 d8 29 be 5a 18 37 be 6d 44 36 3d
       0.45773652 -0.16586624 -0.17880383 0.04449885
000120 76 be b9 bd ea ad 94 bb 9a 82 64 3e 02 0b 0f 3d
       -0.09069531 -0.0045373337 0.22315446 0.034922607
000130 1c 26 06 be 7b 67 09 3e f2 9a b9 bd db ec 15 be
       -0.13100475 0.13418381 -0.090627566 -0.14641134
000140 8b c1 a7 bd 75 ad 27 3e b4 0e bc be 2e 89 14 3e
       -0.08191212 0.16374762 -0.36729968 0.14505455
000150 0d ea 6e 3d f9 5c 06 be 46 5a 71 3d 81 7d 14 3e
       0.058328677 -0.13121404 0.058923982 0.14501001
000160 a7 c8 e8 3d a1 d7 82 bd f0 ba 94 bc 05 1d ad bd
       0.113663964 -0.06388784 -0.018155545 -0.08452801
000170 07 57 69 3e 98 d7 cb 3d 67 bf 9f be 9f 89 ea bd
       0.22787105 0.099532306 -0.31200716 -0.114520304
000180 f1 37 06 be 3c 0a e7 3c f4 41 f2 bd f2 72 84 3d
       -0.13107277 0.028203122 -0.11828986 0.064672366
000190 e5 5d 09 bd 6b cb e3 3d b5 e1 37 3e 70 6b 05 bd
       -0.03353681 0.11122783 0.17957194 -0.032573164
0001a0 34 ef 87 bd 44 35 f8 bd 9a e5 34 3e 5a 12 8e bd
       -0.06637421 -0.121195346 0.17665711 -0.06937094
0001b0 f9 07 8d bd e4 79 14 be 47 84 34 3e 38 0f 07 3f
       -0.06886286 -0.14499623 0.17628585 0.52757597
0001c0 01 6b 93 3e 1c 9e e3 3d 3c ff 71 bd 08 5a 8a 3d
       0.28792575 0.11114141 -0.0590813 0.06755453
0001d0 af db 3c 3e aa fd 7d 3e c5 58 9f bd 87 89 73 3e
       0.18443178 0.24803796 -0.07780603 0.23782931
0001e0 77 aa 37 3d 6d ef 3c 3d a7 1e aa 3d cd b3 76 3d
       0.044840302 0.04612677 0.08306628 0.060230065
0001f0 f4 95 90 3e 3c db 7c bc 40 24 c3 bd 84 fd 68 3c
       0.28239405 -0.015433129 -0.095283985 0.014220599
000200 db 71 ff bc 5c 06 e7 3d 9c 5c c7 be 85 2d ae bd
       -0.03118222 0.1128051 -0.38937843 -0.08504776
000210 c0 e1 8d 3d 42 56 44 3c 0a f7 8b 3c 37 7f d5 3c
       0.06927824 0.011983456 0.01708557 0.026061637
000220 70 e4 b1 be 91 1a 90 3e b7 81 9d bc f5 86 91 3c
       -0.34744596 0.2814527 -0.019226892 0.017764548
000230 24 4a 1f 3d fc 18 15 be db 65 ab 3c 6f 02 f7 3c
       0.038889065 -0.14560312 0.020922592 0.030152528
000240 99 78 19 bc 1e 5f 3e 3e 8e a2 4c 3d 1a 70 44 3e
       -0.009367132 0.18590972 0.04995971 0.19183388
000250 e2 23 a9 bd 18 5d a0 be fb 31 be bd 00 09 39 be
       -0.08258797 -0.31321025 -0.09286877 -0.1806984
000260 68 2d 6b be c9 4f 14 be 29 42 4e be 67 1d 78 bc
       -0.2296654 -0.1448356 -0.20142426 -0.015143729
000270 59 fd c3 3d ce 3f 5b 3e 86 90 17 3e 53 7c 09 bd
       0.095698066 0.21411058 0.14801225 -0.03356583
000280 02 eb 5f 3d b8 8f 93 3d da e6 6a 3e 00 ce 0c 3c
       0.05466748 0.072051466 0.22939625 0.008594036
000290 00 16 88 3e 4b 74 1b 3d ea 70 c2 3e a7 be 2e be
       0.26579285 0.037952702 0.37976772 -0.17064916
0002a0 01 a6 01 3e 1e 93 c0 bd 5e 9c 56 3e 7d 8a 24 3e
       0.12660982 -0.094030604 0.20958087 0.16068454
0002b0 9b a4 d8 bd 8d 41 8a bc c1 f2 87 3e 61 e3 0f 3e
       -0.10578271 -0.01687696 0.26552394 0.14051582
0002c0 6a 07 1c 3e 3c 5d c5 3c 92 f4 a7 3d fa 47 54 bd
       0.15237203 0.02409231 0.08200945 -0.051826455
0002d0 34 eb e8 bd 04 d1 17 bd b2 9e 8d 3d 83 22 44 be
       -0.113729864 -0.037064567 0.06915034 -0.1915379
0002e0 7a 09 17 be 2d 57 54 be 7c 6f b8 3d 08 86 09 3f
       -0.14749709 -0.2073638 0.09005639 0.5372014
0002f0 a0 a5 21 be 1e ce 10 3b f5 2f 3d bd bb 8e 78 3d
       -0.15785837 0.0022095512 -0.046188314 0.060682993
000300 ef 2d 96 3e 5d bd 5b be 10 56 d5 bd b3 9a fb bd
       0.2933192 -0.21458955 -0.10416806 -0.12285366
000310 0c a8 c7 bc 9d 0d c5 3d 14 fe 1f 3e f5 77 a2 3d
       -0.024372123 0.09621737 0.15624267 0.07933036
000320 77 4d 16 be 2d 3f 85 38 18 f2 d5 3d a7 43 18 bf
       -0.14677988 6.3537016e-05 0.10446566 -0.5947823
000330 5b bc 5f bd 02 4a fd b9 9e c3 29 3e e5 8a 94 bc
       -0.05462299 -0.0004831106 0.16578528 -0.018132636
000340 36 36 b2 3d de 81 41 bd d6 d3 28 3c 51 6f eb bd
       0.08701746 -0.04724299 0.010304412 -0.11495841
000350 9f 1c c8 bd e2 65 0f be 22 77 19 3e ce 52 5a 3c
       -0.09771084 -0.14003709 0.14986852 0.013325406
000360 91 33 41 3e 24 e8 51 3e 51 bb 59 3d 91 37 16 bd
       0.18867327 0.20498711 0.053157154 -0.036674086
000370 ac 88 c2 3c 19 61 4a 3e 01 22 59 3d 1f 9e d6 3e
       0.02374681 0.19763602 0.053010944 0.41917512
000380 2d 2a 1d 3d 74 bd 70 3e a0 fd 3e 3e 43 79 77 be
       0.0383703 0.2350977 0.18651438 -0.24167351
000390 48 36 72 be 0e 5a 1f be eb 90 1a 3c 62 e8 23 3e
       -0.23653519 -0.15561697 0.009433965 0.16006616
0003a0 2e ed 14 be 08 60 30 bd 6b c7 f7 3d 30 a1 07 be
       -0.14543602 -0.043060333 0.12098583 -0.13245082
0003b0 08 fe 34 3e 5f b7 49 3e 5e eb ca bd 79 76 14 be
       0.1767503 0.19698857 -0.09908174 -0.14498319
0003c0 4f 37 bd bd ea 22 40 be 58 72 49 be 36 ec 9e be
       -0.09239065 -0.18763319 -0.19672525 -0.3103959
0003d0 d2 06 17 bd e0 e0 c4 bc 02 61 5d bd b3 e1 e8 bd
       -0.03687174 -0.02403301 -0.054047592 -0.11371174
0003e0 3e 30 cf 3d 5b c3 8d be 31 8e 19 be be 22 5c bc
       0.10116623 -0.27688107 -0.14995648 -0.013436018
0003f0 a9 42 78 be c8 42 f4 bd 1f d3 fa bd 23 df 25 bd
       -0.24244179 -0.119268 -0.122472994 -0.040496003

bneck1.0.bn3.weight f4 [16]
000000 d9 b5 1e 3e fd 37 a8 3d 01 06 04 3e cf 15 80 3e
       0.15499057 0.08213804 0.12892915 0.2501664
000010 4f 0d 89 3e 68 a5 bd 3d 34 9f 2c 3e 8c 30 19 3e
       0.26767966 0.09260064 0.16857606 0.14959925
000020 54 f0 be 3d 9d e2 13 3e 1e 14 5c 3d 74 37 df 3d
       0.09323183 0.14441915 0.053730123 0.10899249
000030 e7 8f 03 3e fc c1 46 3e 46 7e 9c 3d 19 be 1e 3e
       0.12847863 0.19409937 0.07641272 0.15502204

bneck1.0.bn3.bias f4 [16]
000000 0f f1 23 3e c9 16 32 ba 41 3e 9c bd 23 dd 08 bd
       0.16009925 -0.00067935564 -0.076290615 -0.033414017
000010 fa 5c dd 3b b2 9d 30 3e 18 cb 91 bc c0 21 8d 3d
       0.0067554684 0.17247656 -0.017797038 0.06891203
000020 86 b6 3b bd 63 4f 0c bd 4d e9 ba 3d b0 3b 94 b8
       -0.045828365 -0.034255397 0.0912653 -7.0683076e-05
000030 c6 cb 07 be 6d ad 01 3d 0b 42 a3 3d 7d ca b9 3d
       -0.13261327 0.031659532 0.07971581 0.09071825

bneck1.0.bn3.running_mean f4 [16]
000000 9f fb 06 be 7b a0 5a be 50 04 57 be 1b 91 3f be
       -0.13181923 -0.21350281 -0.20997739 -0.18707697
000010 d5 5a 40 3e 2a 0b 55 be 2f 47 97 3d 97 87 81 3e
       0.1878465 -0.2080504 0.07386624 0.2529876
000020 78 ed 55 be ef 1f 56 be f5 7f df 3e 66 cb 99 3e
       -0.20891368 -0.20910619 0.4365231 0.30037993
000030 d1 0c 42 be 0a e2 f8 3d 62 5e 30 3d 30 60 a1 be
       -0.18950202 0.121524885 0.04305876 -0.31518698

bneck1.0.bn3.running_var f4 [16]
000000 4b 93 1c 3c 2f 07 b3 3b d2 14 f2 3b 8d b3 74 3d
       0.009556602 0.005463503 0.007387736 0.059741545
000010 d6 55 35 3c 1a eb d5 3b 8e e0 0c 3c 89 e3 3f 3b
       0.011067828 0.0065282704 0.00859846 0.0029279909
000020 5f 98 af 3b 8c c4 eb 3b 27 7e 79 3b 07 6f db 3b
       0.00535874 0.007195061 0.0038069577 0.006696585
000030 6d 73 0a 3c 94 31 25 3c 90 78 25 3c 2e 39 ec 3b
       0.008450371 0.010082621 0.010099545 0.007208965

bneck1.1.conv1.weight f4 [32, 16, 1, 1]
000000 9e bb 01 3d 18 3e 3c be ab ec c3 be d6 d9 8f be
       0.031673066 -0.18383062 -0.382665 -0.28095883
000010 b0 c7 99 3d 30 fc 1c 3e 99 01 88 3d 9b e0 a6 bc
       0.075087905 0.15330577 0.0664093 -0.020370772
000020 5e 17 4f 3e aa 82 13 bc 0d d7 34 be f5 5e d5 bc
       0.20223758 -0.009003321 -0.1766016 -0.026046256
000030 9e 01 1a 3c 55 60 ca bc c9 a2 05 bf b0 dd f3 3c
       0.0093998 -0.024704138 -0.52201515 0.029768795
000040 2f 3e 1d 3d b4 74 6e bd 21 72 15 bd 77 22 1a be
       0.03838938 -0.058216766 -0.036485795 -0.1505221
000050 03 8f 8e be a7 87 15 3e 89 7b 15 3d 58 2e ae bd
       -0.27843484 0.14602529 0.036494765 -0.08504933
000060 4f f2 70 3e 65 6e 53 be 78 cc 08 be 36 1f e8 3d
       0.23529933 -0.20647581 -0.13359249 0.11334078
000070 4c 3e 9f 3d c9 40 1f 3e 63 04 bf bd 8f 03 0a be
       0.07775554 0.15552057 -0.093270086 -0.1347792
000080 e0 e0 a8 3d e5 9c 2d bd 99 e1 92 bd 7e 0e dd bc
       0.082460165 -0.042385954 -0.071719356 -0.02698445
000090 c3 cb 99 3e 6a 91 4c be 0d bc b4 bb e0 20 0a 3e
       0.3003827 -0.19977346 -0.0055155815 0.13489103
0000a0 8b 40 81 3e c5 d2 b0 3e 6f 5d 0d 3b a1 d6 9b bd
       0.25244555 0.34535804 0.0021570583 -0.076092966
0000b0 c9 e5 02 bd 6e 2b 97 bc f2 08 e7 3c 07 b4 ab bd
       -0.03195742 -0.018453326 0.028202508 -0.08383947
0000c0 1d 30 9c be 86 6a 1a 3e e7 ba af bd 63 59 92 3e
       -0.30505458 0.15079698 -0.08580571 0.28583822
0000d0 b6 7a 95 3d 8a 4f 03 be 0d 17 b3 3d bc 24 e0 bc
       0.07298796 -0.1282331 0.08744631 -0.027361266
0000e0 55 1f c8 3e 82 1d 21 3e f6 00 ce be 3f 55 52 bd
       0.39086404 0.15733913 -0.40235108 -0.05135083
0000f0 e7 4b 48 3c 17 11 1b be 82 89 9d 3d 49 4b 6b bb
       0.012225128 -0.15143238 0.07692243 -0.0035903028
000100 89 c9 0a be ef 79 62 3e 1b 3a e2 3d d3 dd 8f bd
       -0.13553442 0.22116826 0.11046239 -0.070247315
000110 52 52 99 bd 3d 01 e8 be 49 fa f6 3c 7f c8 88 bd
       -0.074864045 -0.45313445 0.030148642 -0.066788666
000120 63 27 28 3e 8f cd 6a 3e 85 b9 3a be f7 a1 06 3e
       0.16421275 0.22929977 -0.18234833 0.13147722
000130 a9 25 56 3e 26 8e 1d be 40 8e 31 3e 9d be d5 bd
       0.20912804 -0.15386257 0.1733942 -0.10436747
000140 49 0d 2b be e1 48 2f 3d 09 63 76 be 53 6c cf bd
       -0.16704287 0.042794112 -0.24061216 -0.10128083
000150 1a 69 15 3d c1 a8 c8 3e 70 25 80 bc d8 9a cd 3b
       0.036477186 0.3919125 -0.015642852 0.0062745623
000160 95 e4 cc bb dd fb 97 bc d6 95 99 be b5 fb 31 3e
       -0.006252835 -0.018552715 -0.29997128 0.17381175
000170 6d c6 7d 3e 20 cd 35 3d 4f d8 00 bf b9 9a 06 3d
       0.24782725 0.044385076 -0.5033006 0.0328624
000180 6a b2 a0 be f9 80 15 be 6b a6 1c 3c a9 65 2c be
       -0.3138612 -0.1459998 0.0095611615 -0.16835655
000190 7c f3 14 3c 7b 75 1e 3e b1 5c 08 be ba 9f c1 bc
       0.009091254 0.15474503 -0.13316609 -0.023635734
0001a0 08 50 c2 bd e3 ca 22 3e 24 0d f5 bd 37 6a af bd
       -0.09487921 0.15897708 -0.11965397 -0.08565181
0001b0 b0 94 df 3d dc 3a b3 3e 9a 33 a5 be 53 62 9c bd
       0.10917032 0.35005844 -0.3226593 -0.07635941
0001c0 a4 3b 0b bf f7 6f 2b 3e 99 7d 21 3e 6c da 87 bd
       -0.5438788 0.1674193 0.15770568 -0.066334575
0001d0 6d 8e 1c bd d4 2e ad 3d b4 52 f9 bb 55 dd bc bd
       -0.038221765 0.084561974 -0.007608736 -0.09221903
0001e0 e8 37 bc 3e 91 87 9c 3d c1 10 95 bb 30 8f 90 bd
       0.36761403 0.07643045 -0.0045491164 -0.07058561
0001f0 82 ff 8b 3c 4b fd f3 bd 9c fd 3d 3e 95 52 60 3e
       0.017089609 -0.11913546 0.18553776 0.21906503
000200 d6 62 d8 3d 12 aa 58 bd 9f 02 eb 3d 7f 36 f2 bd
       0.105657265 -0.052896567 0.11475109 -0.118268006
000210 63 18 9d bb 1f f0 99 3e dc e1 aa bd c2 7e c4 3c
       -0.004794167 0.3006601 -0.083438605 0.023986224
000220 36 c3 ee 3c b6 45 13 3e 76 ec 5b bd c4 a0 80 be
       0.029145818 0.14382061 -0.053692304 -0.25122654
000230 04 ca b6 3e 6e 17 4f bc 6b 49 25 3c 3a 66 99 be
       0.35701 -0.012639863 0.010088305 -0.29960805
000240 e8 ce 07 be 39 f3 47 3c 0d 92 7c bd d7 d9 0d bd
       -0.13262522 0.012203985 -0.061662722 -0.034631576
000250 98 4c e8 3d 66 59 e1 be 5a 78 5f 3c 8d a6 c8 bc
       0.11342734 -0.44013518 0.013639534 -0.02449348
000260 0c 83 cc be a8 de 9b 3d e0 3e 32 be 61 df 41 3b
       -0.3994373 0.07610828 -0.17406797 0.0029582607
000270 3f 48 c9 3d a6 d4 a6 bb c2 0e 01 3e 6a a8 86 be
       0.09828233 -0.0050912676 0.12603286 -0.26300365
000280 c6 e1 cd 3d 1f 3d 96 bd a8 41 d3 3d ff 5d 08 be
       0.100528285 -0.07335877 0.10315257 -0.13317107
000290 b8 3e 4d bd 8c ff 99 be 2f 8f 13 be 53 53 0a 3e
       -0.05010864 -0.3007778 -0.14410089 0.13508348
0002a0 ff 10 65 3e 91 20 e2 3d 21 59 df 3c 2e 3f 3c 3e
       0.22369765 0.11041368 0.02726418 0.18383476
0002b0 d2 e0 a1 3e d7 3d 87 3e 90 ec 44 be 2b 43 d9 3d
       0.31616837 0.26414368 -0.19230866 0.106085144
0002c0 22 81 cf be 8a 19 d9 bd 79 97 f3 bc 8c 66 30 bd
       -0.40528208 -0.10600574 -0.029735314 -0.043066546
0002d0 32 9a 81 3b 21 31 2a 3e cb a9 2e 3e 33 00 11 be
       0.003955149 0.16620304 0.17056958 -0.14160232
0002e0 77 b6 41 be f8 2e ea 3c 63 13 25 be 90 42 67 be
       -0.18917261 0.02858685 -0.16120677 -0.22583985
0002f0 11 38 82 be b1 a1 9c 3d 5c f9 a5 be 8a d3 a7 bc
       -0.254334 0.07648028 -0.3241681 -0.020486612
000300 bb 38 fc 3d 3b a3 3b bc 64 06 1f bd 44 e1 5a bd
       0.12315508 -0.011452491 -0.038824454 -0.053437486
000310 55 37 43 bd 5c 9c 25 3d 64 87 e5 3d 1a 0e 13 be
       -0.04766019 0.04043232 0.11207464 -0.14360848
000320 d7 f0 a7 bd 9e de 35 bd 6f e8 45 3e 2e 63 e2 be
       -0.082002334 -0.044401757 0.19326948 -0.44216293
000330 01 de 08 3f 81 40 ef bd 83 3f 80 3e f2 38 4e 3c
       0.5346375 -0.11682225 0.25048456 0.012586819
000340 96 4c b1 3d ba d8 67 bc ed af 83 3e 71 f8 1c be
       0.08657186 -0.014150793 0.25720158 -0.15329148
000350 ac 4d 93 3a 62 de 35 ba b5 5e 35 be 48 71 8e bd
       0.0011238358 -0.00069377397 -0.17711909 -0.069552004
000360 90 8b e6 be cd b0 fe be d8 c3 19 b8 40 61 f1 bd
       -0.45028353 -0.49744263 -3.6660436e-05 -0.11786127
000370 87 30 e0 bd 6e b2 07 be f5 e3 46 3d 6c bb 05 3d
       -0.10946756 -0.1325166 0.04855724 0.032649443
000380 0c 91 36 3e a9 8e fc bd 07 53 ce 3d c6 63 d5 3e
       0.17828768 -0.12331898 0.1007443 0.41677684
000390 5d 4e 0f be 68 da 12 bb 57 b6 1e 3d ea f4 dc bd
       -0.13994737 -0.0022408012 0.03874811 -0.10788901
0003a0 b4 3e c7 bc 42 c0 fe bd 6b 05 4d be 5f aa 9f 3c
       -0.024321891 -0.12439014 -0.20021598 0.019490419
0003b0 a4 2e f2 bd 69 8f 5c be cd 3a d0 be 6b 47 2f bd
       -0.11825302 -0.21539082 -0.4066986 -0.04279272
0003c0 9b 91 83 bd 0e 57 24 bb a2 61 a2 bd 14 05 a8 3d
       -0.064242564 -0.0025076303 -0.07928778 0.082040936
0003d0 61 83 94 3d 28 91 3e be 57 3e 1d 3d c7 2d b6 be
       0.07251621 -0.1861006 0.03838953 -0.355818
0003e0 87 d7 55 bd da c1 91 be e7 10 41 bd 2e ee 28 3e
       -0.052207496 -0.2846821 -0.04713526 0.16497108
0003f0 f7 32 45 be 2e 18 0f 3e 93 31 d7 be 69 07 39 3e
       -0.19257723 0.13974068 -0.4203001 0.18069233

bneck1.1.bn1.weight f4 [32]
000000 f9 a0 4a 3e 10 db 1f 3e 04 ba 9e 3d 88 73 8e 3e
       0.19787969 0.1561091 0.077503234 0.27822518
000010 03 67 15 3e 2e 37 a2 3d 62 e3 1c 3e 76 05 24 3e
       0.14590077 0.07920681 0.15321115 0.16017708
000020 c9 a5 0a 3d 08 2b ab 3d ef cf f8 3d 49 67 a4 3e
       0.03384951 0.08357817 0.12149035 0.3211005
000030 a6 62 54 3e 35 49 8e 3e 4f 6a 6a 3e 07 52 89 3e
       0.20740756 0.27790228 0.22892116 0.26820394
000040 1b 4a 80 3e d2 1d ce 3d 2f df 15 3e d8 61 3b 3e
       0.25056538 0.100642815 0.14635919 0.18299043
000050 42 bb f2 3d 05 37 c7 3e 6e 4b 9b 3f 82 bf 4c 3f
       0.11852123 0.38909164 1.2132394 0.7997972
000060 72 37 9b 3d a7 c4 f9 3d 14 da 01 3e 94 ae a5 3d
       0.07578935 0.121957116 0.12680846 0.08089939
000070 08 6c 6e 3e 8f d5 fb 3d 2b 31 3d 3f 4e 20 a7 3d
       0.23283398 0.122965924 0.7390315 0.081604585

bneck1.1.bn1.bias f4 [32]
000000 34 a5 f8 3d 1a b6 23 3e 2e e6 a3 3e 4a e9 b3 bd
       0.12140885 0.15987435 0.3201155 -0.08784731
000010 11 c0 25 3e 34 55 94 3e 34 bd 29 3e 78 f7 0a 3e
       0.16186549 0.28971255 0.16576082 0.13570964
000020 79 bd f0 3e e8 3f a4 3e a2 c7 4e 3e 2e dd c6 3d
       0.47019556 0.32080007 0.20193341 0.097101554
000030 c1 79 0a 3e 96 af bd bd 06 5e d0 3d c8 8a e3 3d
       0.13523008 -0.09262006 0.101741835 0.11110455
000040 6a 2b f8 3d 18 2e 81 3e 66 66 31 3e 78 7a 13 3e
       0.121176556 0.2523048 0.17324218 0.14402187
000050 a6 9f 3f 3e 87 49 06 3e 4d 34 03 3d 89 4b 5c bd
       0.18713245 0.13113986 0.0320323 -0.053782973
000060 0d 81 89 3e b4 bd 4b 3e b0 a0 41 3e 1b 4e 91 3e
       0.2685627 0.19896585 0.18908954 0.28379902
000070 b9 dc d5 3d f2 e0 3d 3e 4c b4 e4 3d 1b b1 6e 3e
       0.1044249 0.18542841 0.111672014 0.23309748

bneck1.1.bn1.running_mean f4 [32]
000000 97 63 0b 3b 80 9b 26 bc a8 0c e8 bc a6 f2 0c be
       0.0021269077 -0.01016891 -0.028326347 -0.13764438
000010 b7 21 30 be ca 44 01 bd 2b ce 86 bd 52 2f a4 bd
       -0.17200361 -0.031559743 -0.06582292 -0.08016838
000020 9e c4 94 bc 00 06 f5 bd 3e a8 a0 bd 1f 3a 33 bd
       -0.01816016 -0.11964035 -0.0784459 -0.0437566
000030 de 34 39 bc 9f dd 56 3d e0 23 2f bd 5a 97 30 bd
       -0.011304108 0.052457448 -0.042758822 -0.04311309
000040 10 8c 74 3d 61 77 3e bc 0b ab a6 3c e3 ba a8 3d
       0.059703887 -0.011625142 0.020345232 0.08238771
000050 8d aa ea bc d9 31 72 bd 7d b9 13 bd 37 f5 9e bd
       -0.028645778 -0.05912957 -0.036065567 -0.07761615
000060 91 dd 8e 3d d5 e4 c4 bc 9d 37 0a bd 4b 41 d2 3c
       0.06975854 -0.024034897 -0.033744443 0.0256659
000070 61 ea fe 3d 17 e2 93 bb c0 ef 75 3d e2 27 aa bc
       0.12447048 -0.004513036 0.060043097 -0.02077097

bneck1.1.bn1.running_var f4 [32]
000000 f8 2e 05 3c 80 a8 f6 3b fc 53 21 3c 9e 5a 38 3c
       0.008128874 0.007527411 0.009846684 0.011252074
000010 1c 1d f8 3b 08 b9 9f 3b 56 05 8e 3c a5 bd 5e 3c
       0.0075718295 0.0048743524 0.017336529 0.0135950195
000020 c1 5a 72 3c a8 fd e7 3b 4b 8d ae 3b 8b 62 33 3c
       0.014792145 0.0070797987 0.005326902 0.010948787
000030 6b 87 35 3c ab 66 33 3c bb ed fb 3c 77 b6 9b 3c
       0.011079649 0.010949771 0.030753007 0.019007904
000040 56 50 7f 3c 03 dd 04 3c 92 75 53 3c 5c 31 93 3c
       0.015583118 0.008109334 0.012906449 0.017967872
000050 79 db 40 3c f6 2f c1 3b 27 df 1e 3d 2e 0d c0 3c
       0.011771076 0.00589561 0.038787033 0.023443785
000060 16 a1 f5 3b dd f9 c9 3c 8d 45 61 3c f0 ee 3a 3c
       0.0074960096 0.024655277 0.013749492 0.011409506
000070 53 71 1b 3c ea f7 6f 3c e6 1a ea 3b f3 fe 28 3c
       0.009487468 0.01464651 0.00714432 0.010314691

bneck1.1.conv2.weight f4 [32, 1, 3, 3]
000000 34 9d 03 be f1 f4 b2 3e 8d 00 02 3e 58 a3 7a be
       -0.12852937 0.349525 0.12695523 -0.24476373
000010 aa 69 a1 3d a1 2f 1a 3e cf d7 e0 bd 2a 14 3f bd
       0.07881482 0.15057231 -0.10978662 -0.04665009
000020 df e9 82 bd d0 55 77 bd 9f 32 f0 ba 1f 78 06 bd
       -0.063922636 -0.06038457 -0.0018325633 -0.0328294
000030 90 f7 9c bd 38 98 94 be 14 8a a4 bd 4d 23 66 3d
       -0.07664406 -0.29022384 -0.08034149 0.05618601
000040 8f cd ad 3e a1 b3 5c 3d 8d ac 72 bc e9 22 ee 3d
       0.3394589 0.053882245 -0.014811647 0.11627752
000050 b7 ac 90 3d 91 d6 88 b8 fe c7 a4 be a7 15 43 be
       0.07064193 -6.5249515e-05 -0.32183832 -0.19051228
000060 62 28 28 bd 25 58 7d 3e 19 77 0a 3e 4d 65 3b be
       -0.041054137 0.24740656 0.13521995 -0.18300362
000070 b4 bd 3a be 73 2c 02 be 70 98 1e be 04 df c4 be
       -0.18236428 -0.12712269 -0.15487838 -0.38451397
000080 f0 3c 82 be c7 db 19 3d 94 2e f5 bc 9c b9 14 bd
       -0.25437117 0.03756311 -0.029929437 -0.036309823
000090 d1 29 14 bd d6 25 93 be 48 fc 3c bd 08 5d a8 bc
       -0.03617269 -0.28739804 -0.04613903 -0.020552173
0000a0 15 98 b8 3e 05 15 fc 3d 3c 0f 27 3d 9a 6f 12 be
       0.3605353 0.12308697 0.040786013 -0.14300385
0000b0 12 2d 22 bb b0 ee 5f 3e f2 73 87 be c0 a5 a5 3c
       -0.0024746102 0.21868396 -0.26455647 0.020220637
0000c0 a9 3f 87 be 98 24 1f 3e 75 dc 06 3d 18 2e 2a 3d
       -0.26415756 0.15541303 0.032925088 0.041547865
0000d0 79 cd 8d 3d fd 04 d1 bc aa f3 e3 bd 2a 96 06 3e
       0.069239564 -0.025515074 -0.111304596 0.1314322
0000e0 53 d8 3a bd 27 49 70 be 9e 40 ac 3e ed b9 09 be
       -0.04561646 -0.23465405 0.3364305 -0.13449831
0000f0 21 4a 51 3d 59 8c f8 bc 9e 0f 99 3c 5a 1e 63 bd
       0.051096085 -0.03034036 0.018684205 -0.055448867
000100 c6 cc 34 3e a8 05 f3 3d 5c 4c 7b be 21 48 c6 3e
       0.1765624 0.11866313 -0.24540848 0.38726905
000110 45 68 75 bc 38 4e 12 bd 1f 43 f3 bb e4 6f ae bd
       -0.014978473 -0.035719126 -0.007423773 -0.08517435
000120 c8 6c 6c 3b a5 2b 5a be 85 b3 4e 3e ba 6e 5c 3d
       0.003607558 -0.21305712 0.20185669 0.053816535
000130 95 e4 89 be 13 76 87 3e d1 6d 07 be d3 63 9a bd
       -0.26932207 0.2645727 -0.13225485 -0.07538571
000140 ab 54 3f 3d ba 1b 5a 3d bf 8b e7 3d ab 06 39 bd
       0.046711605 0.0532491 0.11305951 -0.045172375
000150 44 18 49 3d c2 82 42 bf f8 6f 04 3e 21 d2 a3 bc
       0.049095407 -0.7598077 0.12933338 -0.019997658
000160 70 3e 6f 3c 79 f7 33 3d fc 82 01 3d 26 b0 50 be
       0.014602289 0.04393718 0.031619057 -0.20379695
000170 49 49 7c 3d c4 ff 20 3e f3 06 de be 3c 71 2c 3e
       0.061593328 0.15722567 -0.43364677 0.1684007
000180 41 f0 a3 bd 70 71 1a 3c f6 0a 93 bd d7 49 31 3d
       -0.08004809 0.00942646 -0.07179825 0.04328331
000190 24 65 c7 bd f0 d4 b4 3c c5 35 30 3e c5 40 73 3e
       -0.09736088 0.022074193 0.17208011 0.23755176
0001a0 82 32 a6 3e 9c fb 75 bb b2 59 34 3e df 90 d8 3d
       0.3246041 -0.0037534004 0.17612341 0.10574507
0001b0 98 e1 89 bd cc 36 5c 39 0a 88 48 be cf 8e 07 bd
       -0.06732482 0.00021001248 -0.19583145 -0.033095177
0001c0 e2 83 04 3e aa d9 f2 be 57 8c 93 bd f7 e0 de bd
       0.12940934 -0.4743169 -0.07204502 -0.108827524
0001d0 c0 ee 7b be 03 86 10 be 77 db 08 3d f8 ee 51 be
       -0.24602795 -0.14113621 0.033412423 -0.20501316
0001e0 08 ea d6 bb d5 53 ad 3d 7e 0b 7c be 1b a8 b7 bc
       -0.0065586604 0.08463255 -0.24613759 -0.022419026
0001f0 53 30 d3 bd 3e 71 bc be c6 4a 95 bd 15 72 ff 3d
       -0.103119515 -0.36805147 -0.072896525 0.12472931
000200 15 bd 04 3d e9 2d 9a bd fd 6f 7d be 3a ac ad 3e
       0.032406885 -0.07528288 -0.24749751 0.3392046
000210 e5 53 ea 3d 03 62 12 be 4d 0a be bc 52 fa d3 bd
       0.11441783 -0.14295201 -0.023198271 -0.10350479
000220 24 09 8d 3e c2 8a c4 bc b7 4c ab 3d e3 f4 1c 3f
       0.27546036 -0.023991946 0.083642416 0.6131117
000230 88 3f 49 3d ae 67 f1 bd 1f 76 d2 bc 00 01 e0 bd
       0.049132854 -0.117873535 -0.02569109 -0.10937691
000240 b3 c5 3d bd 89 5b 83 bd 2d 69 a8 bd 34 a4 53 bd
       -0.04633112 -0.06413943 -0.08223186 -0.05167027
000250 e5 f4 57 bd a9 9c 2f 3e 7b 78 be 3c 30 79 c8 3e
       -0.052723784 0.17149605 0.023250809 0.3915496
000260 20 c3 50 3e 7d 5e 8f bd 1d be 9c 3e 6b 2f c1 bd
       0.20386934 -0.07000444 0.30613795 -0.094328724
000270 c0 4c 64 3d 80 2c b6 be 9a 22 d0 3d 56 17 69 3c
       0.055737257 -0.35580826 0.1016285 0.014226755
000280 6d d2 e2 3c 6d 62 c6 bc 59 47 6c bd fe 74 72 3e
       0.02768823 -0.024216855 -0.05768523 0.23677441
000290 be 0d 6f bd fd 60 39 be 22 a0 7a 3e 00 08 ae 3d
       -0.058362715 -0.18103404 0.24475148 0.0849762
0002a0 af 96 ae bd 38 82 17 be cb 4d 00 bd 8c 47 dd bc
       -0.08524834 -0.14795768 -0.03132419 -0.027011655
0002b0 2d a3 ea be 52 1c 53 be f5 cf ec 3c 59 42 52 3e
       -0.45827618 -0.20616272 0.028907755 0.20533122
0002c0 79 52 e8 3d 20 04 6d 3d 62 63 c3 bd 0e 49 c9 3d
       0.113438554 0.057865262 -0.0954044 0.09828387
0002d0 20 12 44 bc b0 4c 19 bd c5 75 37 3d c6 32 28 3d
       -0.011967212 -0.03742665 0.04479005 0.041064046
0002e0 8a 5e b3 3e 09 26 98 3d 6b 86 cc 3b 8c 37 8e be
       0.35033065 0.0742913 0.00624161 -0.27776754
0002f0 71 9e f6 bd 5c 54 5e be ad 3d 26 3e 67 6f ac 3d
       -0.12041939 -0.21711868 0.16234465 0.08419686
000300 18 97 bd 3b 26 c6 1f 3d c5 3d 73 3e 97 af ca bd
       0.005785834 0.03900733 0.23754032 -0.09896772
000310 f1 56 9b 3c ef 2f 4c 3d 59 8e a6 bd 93 4e a7 be
       0.018962355 0.0498504 -0.081326194 -0.32677135
000320 2e 26 59 3e ec 6c c1 bd fa 4d ed 3d 4c c2 5a 3e
       0.2120597 -0.09444603 0.115871385 0.21363181
000330 90 6e d8 3b ba 02 0a 3c cc 8e d5 bd 2e 2b 10 bb
       0.006604977 0.008423502 -0.10427627 -0.0021998393
000340 af a9 f6 bd 34 b3 f2 bd 27 ac fa be 66 90 02 be
       -0.12044083 -0.118505865 -0.48959467 -0.12750396
000350 02 60 a5 3a 94 a7 77 bd 3d 89 17 be 51 05 04 3c
       0.0012617114 -0.06046255 -0.14798446 0.008057908
000360 c6 aa cc 3c 45 c6 93 be 08 05 6c 3e f9 27 40 bc
       0.024983775 -0.28862205 0.23048794 -0.01172828
000370 f8 fb 6b 3e f5 16 45 be ae ee 03 bd a5 99 f8 3c
       0.23045337 -0.19247039 -0.032210045 0.0303467
000380 6d 58 0c 3b dd be be 3d 63 81 10 be b2 32 03 be
       0.002141501 0.09313748 -0.14111857 -0.12812307
000390 5f de 47 bc 38 7c cf 3e 69 9f 1c bd b4 f2 76 bd
       -0.0121990135 0.4052446 -0.038237963 -0.060290053
0003a0 7d 4e 14 be 97 c6 9f bc f0 4a 3d bd bf c7 b7 be
       -0.14483066 -0.019503875 -0.046214044 -0.35894582
0003b0 60 f1 16 be 66 9f 3f 3e 62 32 7b 3c e7 26 85 3d
       -0.14740515 0.1871315 0.015331836 0.06501561
0003c0 06 33 3a 3d 25 44 42 3e cc a4 e7 bd b3 43 2a 3e
       0.045458816 0.18971308 -0.113107294 0.16627388
0003d0 19 06 93 3e b0 97 1b 3e 41 dc fc bd 67 48 2a bd
       0.2871559 0.15194583 -0.123466976 -0.041572955
0003e0 6b 08 c0 bd 58 27 2c be af c8 dd bd 20 01 ae bd
       -0.093766056 -0.16811883 -0.10829293 -0.08496308
0003f0 2c d3 2d 3e f4 8a 96 3e 69 ce d3 3d 1a 35 10 3e
       0.16975087 0.29402888 0.10342104 0.14082757
